src/api/realtime/nids_helpers/detection_model/autoencoder.pth (torch, 12559 bytes, 27 tensors)

encoder.0.weight f4 [9, 18]
0.17414762 -0.59097046 -0.81604457 0.11278157 -0.6283113 -1.0727361 -0.8659083 -0.78774613
-0.3914941 -0.790902 -0.8077971 0.9927802 0.6660987 0.1944407 -0.44949174 -0.648126
0.021436252 0.1365996 0.10979793 0.39741603 1.2880656 -0.23196761 0.9259061 0.94907606
0.9493273 0.25923213 0.20627868 0.56934166 1.2152292 -1.3174961 0.4182899 -0.14734614
0.20124461 -0.13490766 0.4574702 -0.14304097 -0.13742083 -0.08559222 -0.17260593 -1.7735715
-0.48763418 0.033759683 -0.17360124 -0.030125681 0.10511062 -0.45299736 -0.75000143 0.88280004
0.2839173 0.4889894 0.5839531 -0.62483394 0.1143175 -0.1255309 -0.46461087 -0.33626992
-0.0035246029 -0.25930363 0.6479399 0.5814154 0.60307163 0.22421513 0.33646214 0.15802766
0.98324394 -0.92193025 0.05092803 0.376578 -0.67472523 0.3928752 -0.44958365 0.16130805
-0.2284619 0.98517495 0.5347252 -0.002594381 0.19066559 0.13735309 0.32352674 0.7478039
0.66974276 -0.03230209 1.1379725 -1.0603133 0.2316537 -0.076053396 -0.19889799 -0.6000035
-0.04702383 -0.20019041 0.24438587 0.91179967 1.5652652 -0.2599546 1.5244994 1.2013452
1.2437404 0.3008809 1.1705453 1.5131547 1.1774613 -1.0388399 -0.17276591 -0.18814012
-0.28339043 -0.029102186 -0.33738294 0.09117774 0.099757515 0.72956425 0.35415968 -0.64582926
0.53102463 0.52041453 0.65773576 -0.16238531 0.53834057 0.025191598 -0.78172195 0.6316914
0.07777639 -0.1307434 -0.4960425 0.022362 0.46013182 -0.13844277 -0.04321541 0.8095754
1.0276428 -0.33333093 0.93664414 0.9319036 1.339532 0.38326102 1.0148077 1.4151975
0.9539104 -0.8558228 -0.30911204 -0.35607776 -0.39162517 0.18219517 0.0032853826 0.1480024
0.13407004 -1.1048397 -0.59803784 -0.1313317 0.60573316 -0.63930035 -0.68439627 0.7901305
-0.05634568 -0.87280256 0.022971062 0.15195434 0.1363068 0.13685769 0.04151587 0.5402187
0.07479224 0.13977127
00000000: c153 323e d749 17bf 4ce8 50bf 06fa e63d
00000010: 02d9 20bf 6b4f 89bf 2bac 5dbf bba9 49bf
00000020: ea71 c8be 8e78 4abf cacb 4ebf d826 7e3f
00000030: 7285 2a3f 761b 473e c823 e6be 96eb 25bf
00000040: 149b af3c c4e0 0b3e bddd e03d 1d7a cb3e
00000050: 55df a43f eb88 6dbe 2f08 6d3f a6f6 723f
00000060: 1d07 733f 13ba 843e b83a 533e 60c0 113f
00000070: a18c 9b3f b6a3 a8bf 182a d63e e8e1 16be
00000080: 1113 4e3e 3c25 0abe 8939 ea3e 5579 12be
00000090: 0cb8 0cbe f94a afbd 9cbf 30be 6404 e3bf
000000a0: 30ab f9be 9847 0a3d 86c4 31be 22ca f6bc
000000b0: 3d44 d73d 45ef e7be 1800 40bf 2fff 613f
000000c0: 9c5d 913e d25c fa3e f37d 153f 1ef5 1fbf
000000d0: 4b1f ea3d 2c8b 00be 7ae1 edbe 922b acbe
000000e0: 06fd 66bb 72c3 84be 64df 253f a4d7 143f
000000f0: e762 1a3f a798 653e c444 ac3e 01d2 213e
00000100: e0b5 7b3f 9f03 6cbf e999 503d d5ce c03e
00000110: cbba 2cbf f026 c93e d42f e6be f02d 253e
00000120: ebf1 69be 6d34 7c3f c0e3 083f 7e06 2abb
00000130: d73d 433e 4aa6 0c3e 4ca5 a53e 1470 3f3f
00000140: 4374 2b3f 324f 04bd 15a9 913f 59b8 87bf
00000150: a136 6d3e e2c1 9bbd eaab 4bbe d499 19bf
00000160: 0f9c 40bd b7fe 4cbe 4a40 7a3e b46b 693f
00000170: 9c5a c83f c518 85be cc22 c33f aec5 993f
00000180: e332 9f3f 100d 9a3e 6ed4 953f 0eaf c13f
00000190: 0db7 963f b5f8 84bf 8ce9 30be cea7 40be
000001a0: 8d18 91be b567 eebc 75bd acbe 65bb ba3d
000001b0: ab4d cc3d b9c4 3a3f 6b54 b53e 1155 25bf
000001c0: 3bf1 073f e339 053f 5f61 283f 5648 26be
000001d0: b0d0 093f 9c5e ce3c ee1e 48bf 87b6 213f
000001e0: 3a49 9f3d 99e1 05be 48f9 fdbe 8330 b73c
000001f0: 6696 eb3e f1c3 0dbe a402 31bd 5540 4f3f
00000200: cd89 833f 5aaa aabe e9c7 6f3f 3c91 6e3f
00000210: c975 ab3f ca3a c43e 38e5 813f 3125 b53f
00000220: 7933 743f 3417 5bbf ef43 9ebe d34f b6be
00000230: 1883 c8be 5f91 3a3e 934f 573b f18d 173e
00000240: a849 093e 636b 8dbf 0219 19bf d17b 06be
00000250: 5411 1b3f 30a9 23bf 9834 2fbf fe45 4a3f
00000260: baca 66bd fd6f 5fbf cf2d bc3c eb99 1b3e
00000270: 0394 0b3e 6c24 0c3e 8b0c 2a3d c64b 0a3f
00000280: ad2c 993d 3320 0f3e

encoder.0.bias f4 [9]
0.047773726 0.014878761 0.0024823358 -0.025646688 0.011360505 0.0030258724 -0.008221606 -0.0005134181
0.03249478
00000000: 62ae 433d 0cc6 733c afae 223b 0119 d2bc
00000010: 6921 3a3c b74d 463b eab3 06bc e896 06ba
00000020: 3f19 053d

encoder.1.weight f4 [9]
1.0125924 0.63953066 0.93071246 0.768926 0.8830819 0.7988881 0.92559737 0.9150306
1.0949445
00000000: a19c 813f 48b8 233f 2c43 6e3f 56d8 443f
00000010: a811 623f ee83 4c3f f3f3 6c3f 723f 6a3f
00000020: 2427 8c3f

encoder.1.bias f4 [9]
-0.7181365 -0.17521706 -0.077876985 0.29149374 0.3035833 1.0291492 0.245408 1.1616921
0.60847294
00000000: cbd7 37bf 1a6c 33be f87d 9fbd ab3e 953e
00000010: 456f 9b3e 29bb 833f 3c4c 7b3e 54b2 943f
00000020: e2c4 1b3f

encoder.1.running_mean f4 [9]
-30511.498 6454.942 -34471.406 4420.101 30599.744 7652.0063 -18793.518 9673.058
29863.252
00000000: ff5e eec6 89b7 c945 68a7 06c7 cf20 8a45
00000010: 7d0f ef46 0d20 ef45 09d3 92c6 3b24 1746
00000020: 814e e946

encoder.1.running_var f4 [9]
2.750123e+08 7.983919e+07 1.05020026e+09 7.719381e+07 1.948743e+08 1.04195976e+08 8.686283e+07 1.7003971e+08
2.8675293e+08
00000000: d622 834d fb47 984c 2363 7a4e 4a3c 934c
00000010: bcd8 394d f1bc c64c 7ead a54c 9a29 224d
00000020: 05bc 884d

encoder.3.weight f4 [6, 9]
0.0780636 -0.03795625 0.62802106 0.46188706 0.49101886 0.6071668 0.056933627 -0.033012543
0.26855594 0.33868307 0.44719064 -0.5142748 0.46214682 0.027184982 -0.14910015 0.22182919
-0.77680665 0.15017161 -0.031595293 -0.123060636 0.21355094 -0.28280416 0.73501945 -0.38508585
0.3994489 -0.98624766 0.13426165 -0.947995 0.3948494 0.11109508 -0.1829276 -0.13144976
0.0844969 0.35246602 0.24531169 -0.52632916 -0.6967069 0.047920432 -0.4535234 -0.2427493
0.22011013 0.034571595 0.29146948 -0.13161767 0.5486789 -0.55772233 -0.2788948 -0.5608605
-0.0919786 0.10701776 0.040670183 -0.01741567 0.0804818 0.36329222
00000000: cfdf 9f3d 0378 1bbd fdc5 203f 767c ec3e
00000010: d366 fb3e 496f 1b3f 3c33 693d 2938 07bd
00000020: 2a80 893e de67 ad3e 2cf6 e43e 83a7 03bf
00000030: 829e ec3e 0ab3 de3c b6ad 18be 3127 633e
00000040: cddc 46bf 96c6 193e 116a 01bd 3707 fcbd
00000050: 19ad 5a3e b5cb 90be 3c2a 3c3f f929 c5be
00000060: 9184 cc3e ba7a 7cbf e37b 093e cdaf 72bf
00000070: b329 ca3e d185 e33d 5f51 3bbe c49a 06be
00000080: b60c ad3d 6d76 b43e fd32 7b3e 82bd 06bf
00000090: 625b 32bf 3748 443d 3834 e8be 4693 78be
000000a0: 8d64 613e f29a 0d3d 7d3b 953e c8c6 06be
000000b0: 3876 0c3f e4c6 0ebf 4dcb 8ebe 8e94 0fbf
000000c0: 475f bcbd 212c db3d c795 263d 4fab 8ebc
000000d0: a4d3 a43d 7001 ba3e

encoder.3.bias f4 [6]
0.3842656 -0.49855128 0.21689728 -0.4298218 0.5348886 -0.04850904
00000000: 76be c43e 1d42 ffbe 521a 5e3e 9a11 dcbe
00000010: 76ee 083f 6ab1 46bd

encoder.4.weight f4 [6]
0.86124325 0.41631645 0.8810829 1.0505855 2.2473133 1.5016224
00000000: 707a 5c3f 6e27 d53e a68e 613f 9679 863f
00000010: fbd3 0f40 2a35 c03f

encoder.4.bias f4 [6]
-0.16760765 -0.98782307 0.020921258 1.1674192 0.68661624 0.7987108
00000000: 57a1 2bbe f9e1 7cbf 0f63 ab3c fe6d 953f
00000010: 15c6 2f3f 5078 4c3f

encoder.4.running_mean f4 [6]
2.0296419 -1.1379272 -0.7772344 -0.5998715 0.7787649 0.10428813
00000000: a7e5 0140 99a7 91bf d5f8 46bf 2e91 19bf
00000010: 235d 473f 0495 d53d

encoder.4.running_var f4 [6]
0.95100474 0.30443782 0.29526073 0.25553095 0.33328822 0.19831431
00000000: 0c75 733f 46df 9b3e 6a2c 973e f4d4 823e
00000010: c1a4 aa3e e812 4b3e

encoder.6.weight f4 [1, 6]
0.124521 1.0296481 0.23901787 -1.4167445 -1.209713 -0.8148893
00000000: de04 ff3d 82cb 833f 1ac1 743e e257 b5bf
00000010: e0d7 9abf 969c 50bf

decoder.0.weight f4 [6, 1]
-0.12234066 -0.09897122 3.0736566 -0.14034364 0.09250872 1.4892457
00000000: bd8d fabd 6cb1 cabd cab6 4440 3eb6 0fbe
00000010: 3675 bd3d 9a9f be3f

decoder.0.bias f4 [6]
0.4367311 0.1235519 -1.8402799 -0.59681547 0.36718962 1.6218444
00000000: 389b df3e c708 fd3d 4b8e ebbf e6c8 18bf
00000010: 4700 bc3e 9998 cf3f

decoder.1.weight f4 [6]
0.8380437 1.4827335 0.736501 1.1198132 0.9406867 0.981558
00000000: 088a 563f 36ca bd3f 548b 3c3f 0a56 8f3f
00000010: d8d0 703f 6347 7b3f

decoder.1.bias f4 [6]
0.04953361 0.52285576 -0.8801177 -0.014976167 0.97875494 -1.0747793
00000000: c1e3 4a3d e0d9 053f 654f 61bf 995e 75bc
00000010: af8f 7a3f 5e92 89bf

decoder.1.running_mean f4 [6]
0.4389149 0.12418361 -1.8696434 -0.5980704 0.36462918 1.6115993
00000000: 74b9 e03e fa53 fe3d 7a50 efbf 241b 19bf
00000010: adb0 ba3e e348 ce3f

decoder.1.running_var f4 [6]
0.00024201571 0.000154387 0.15198398 0.0003217092 0.00013217975 0.03580311
00000000: 99c5 7d39 f2e2 2139 b0a1 1b3e 14ab a839
00000010: bb99 0a39 48a6 123d

decoder.3.weight f4 [9, 6]
1.4869167 2.0100784 -0.68468326 0.9197063 0.4492991 -0.3762278 1.7819452 2.595938
-0.31189656 0.8644835 0.13824603 -0.45902497 1.7863915 1.0012717 -0.8562342 1.5882
0.87502927 -0.8937588 0.15691276 -0.11092999 -1.2017709 1.1068976 1.2251762 -0.6493661
1.8466452 2.5354567 -0.012263516 0.5538574 -0.25128642 -0.27414483 0.96591496 -0.09476853
-1.149423 0.7015854 1.5751754 -1.0718598 1.720607 1.3038231 -0.4293471 1.4155304
0.73085356 -0.8888603 1.1125528 1.887102 -0.35276583 1.190129 0.09712467 -0.26058978
2.0402794 1.3305275 -0.43372086 1.5258052 0.642709 -0.8444336
00000000: 4953 be3f 20a5 0040 6747 2fbf df71 6b3f
00000010: 880a e63e eea0 c0be c816 e43f d923 2640
00000020: e8b0 9fbe ca4e 5d3f 5e90 0d3e 5205 ebbe
00000030: 7aa8 e43f ac29 803f 2a32 5bbf 234a cb3f
00000040: eb01 603f 60cd 64bf bdad 203e 432f e3bd
00000050: a1d3 99bf d2ae 8d3f 93d2 9c3f db3c 26bf
00000060: df5e ec3f ec44 2240 eaec 48bc 99c9 0d3f
00000070: 9da8 80be b65c 8cbe 3446 773f 0116 c2bd
00000080: 4b20 93bf 1a9b 333f 599f c93f b432 89bf
00000090: da3c dc3f ade3 a63f 62d3 dbbe 1a30 b53f
000000a0: 3819 3b3f 598c 63bf 2168 8e3f 8f8c f13f
000000b0: b99d b4be 2656 983f 4de9 c63d 066c 85be
000000c0: f093 0240 ba4e aa3f a910 debe 964d c33f
000000d0: 9488 243f cd2c 58bf

decoder.3.bias f4 [9]
-22.500063 25.604416 23.798368 -22.984425 26.25502 27.666489 23.838657 -24.403137
23.86329
00000000: 2100 b4c1 d8d5 cc41 0f63 be41 1ae0 b7c1
00000010: 480a d241 f854 dd41 92b5 be41 a039 c3c1
00000020: 05e8 be41

decoder.4.weight f4 [9]
62.28971 62.55506 61.618702 105.28913 62.967632 103.12152 61.6833 62.56306
61.734024
00000000: aa28 7942 6238 7a42 8d79 7642 0994 d242
00000010: dbde 7b42 383e ce42 b3bb 7642 9340 7a42
00000020: a4ef 7642

decoder.4.bias f4 [9]
70.550285 70.65505 70.7234 108.14941 70.79563 107.67355 70.46247 70.49491
70.27384
00000000: bf19 8d42 634f 8d42 6172 8d42 7f4c d842
00000010: 5d97 8d42 dc58 d742 c9ec 8c42 65fd 8c42
00000020: 358c 8c42

decoder.4.running_mean f4 [9]
-19.328854 29.124939 26.727139 -21.554125 29.274456 29.519007 26.85547 -21.671024
26.986902
00000000: 7ea1 9ac1 e0ff e841 2ed1 d541 d96e acc1
00000010: 1632 ea41 ed26 ec41 01d8 d641 425e adc1
00000020: 2de5 d741

decoder.4.running_var f4 [9]
2.5510693 4.843436 1.20421 0.12899029 5.3671727 0.221869 1.5568655 2.959119
2.0426946
00000000: b844 2340 6dfd 9a40 8e23 9a3f 0816 043e
00000010: e1bf ab40 a131 633e 5e47 c73f 3562 3d40
00000020: 82bb 0240

decoder.6.weight f4 [18, 9]
0.025399193 -0.024214381 -0.028410498 -0.018756995 0.043795034 -0.017202672 0.07155879 -0.07621857
-0.011781665 -0.012724748 0.11068905 0.033686865 -0.0046477607 0.043974902 -0.0048969733 -0.08187449
-0.116771355 0.0093557015 0.0029644123 0.02305559 -0.023084715 -0.010477792 0.01901206 -0.0055837273
-0.10178408 -0.031475436 0.04684332 1.4101944 0.11457903 10.567088 61.915684 -0.8423479
60.168076 6.771666 0.45528775 5.112919 -0.016460843 0.114272475 -0.03290374 -0.0003225996
-0.05335261 0.000668486 -0.21751851 -0.06863005 0.27438456 0.0005550982 -0.11923577 0.0717456
0.003589856 0.093456045 -0.0026232977 -0.017257879 0.091842785 -0.12013709 0.015022426 -0.10675845
-0.0036992633 -0.011207697 0.13849707 -0.020505251 -0.042873655 -0.048000246 0.02815718 67.9803
68.22191 67.47847 16.510738 68.08641 19.604685 67.82592 68.08292 68.25852
0.004012485 -0.14969093 -0.11048091 -0.001886707 0.01571515 0.00035637678 0.092553414 0.036600754
0.10881309 0.00945237 -0.005890173 -0.008390668 -0.005610308 0.06617523 -0.005465044 -0.113443695
-0.03217814 0.084759146 0.044656675 -0.025254592 -0.005835737 0.0028055618 -0.03767614 -0.00038398692
0.09530474 0.080340885 -0.1494934 0.04648993 -0.05122152 0.010326903 -0.006743089 0.0036649692
0.0011850076 0.079296425 0.04446551 -0.14828056 -0.04469862 0.1685762 0.021919446 -0.0029083479
-0.112065576 -0.010913559 -0.13680881 -0.039949868 0.054164886 0.02604862 -0.06466359 -0.041422445
-0.003753303 0.039477296 -0.0011855577 -0.05819952 -0.058048185 0.1540566 -0.050204486 0.055053826
-0.003805939 -0.00020001414 -0.03179795 -0.0016453997 -0.09738824 0.012795227 0.11508999 -0.031192433
0.058398288 -0.033969764 -0.0018490761 -0.030746717 0.00025606 -0.017170474 -0.037623387 0.08847453
0.027251916 -0.08885506 -0.0048036114 -0.0021374982 0.022705518 -0.00053689023 -0.0050867074 0.04885386
-0.0053179166 -0.08628422 0.07138184 -0.06829963 -0.001263496 -0.037281267 0.00028203015 0.044644866
-0.043550897 0.11769884
00000000: f811 d03c 3d5d c6bc 22bd e8bc 45a8 99bc
00000010: 6c62 333d 9eec 8cbc 6a8d 923d 7b18 9cbd
00000020: e207 41bc 767b 50bc f1b0 e23d 3dfb 093d
00000030: 3e4c 98bb 071f 343d ca76 a0bb d0ad a7bd
00000040: d225 efbd a848 193c 9646 423b 14df bc3c
00000050: 281c bdbc 0bab 2bbc 2ebf 9b3c b3f7 b6bb
00000060: 2c74 d0bd 63ec 00bd c8de 3f3d 4081 b43f
00000070: 69a8 ea3d cb12 2941 a9a9 7742 1da4 57bf
00000080: 1cac 7042 7db1 d840 7a1b e93e 089d a340
00000090: e4d8 86bc b007 ea3d 12c6 06bd 9622 a9b9
000000a0: 4488 5abd 563d 2f3a 2cbd 5ebe e98d 8cbd
000000b0: 227c 8c3e 0284 113a e231 f4bd 5bef 923d
000000c0: ca43 6b3b e265 bf3d a2eb 2bbb 6560 8dbc
000000d0: 1218 bc3d 6f0a f6bd 9f20 763c 2da4 dabd
000000e0: 576f 72bb 7da0 37bc 2dd2 0d3e a1fa a7bc
000000f0: 499c 2fbd e89b 44bd e3a9 e63c eaf5 8742
00000100: 9e71 8842 faf4 8642 fe15 8441 3e2c 8842
00000110: 65d6 9c41 dfa6 8742 742a 8842 5d84 8842
00000120: 2a7b 833b 9448 19be d143 e2bd 624b f7ba
00000130: 0fbd 803c 15d8 ba39 a58c bd3d acea 153d
00000140: 66d9 de3d 1dde 1a3c 5a02 c1bb 0379 09bc
00000150: add6 b7bb e186 873d 1d14 b3bb 2b55 e8bd
00000160: 3acd 03bd 3496 ad3d ebe9 363d b8e2 cebc
00000170: b639 bfbb 84dd 373b 4c52 1abd da51 c9b9
00000180: 222f c33d c389 a43d cc14 19be 3a6c 3e3d
00000190: a8cd 51bd 2c32 293c 21f5 dcbb fb2f 703b
000001a0: 4252 9b3a 2a66 a23d 7721 363d dcd6 17be
000001b0: e615 37bd 3d9f 2c3e 6990 b33c fb99 3ebb
000001c0: a382 e5bd c9ce 32bc 9c17 0cbe 79a2 23bd
000001d0: 00dc 5d3d ea63 d53c 586e 84bd 95aa 29bd
000001e0: faf9 75bb f2b2 213d b764 9bba 9f62 6ebd
000001f0: efc3 6dbd 03c1 1d3e 38a3 4dbd 1f80 613d
00000200: 106d 79bb e3ba 51b9 913e 02bd 74aa d7ba
00000210: 7c73 c7bd 12a3 513c 4db4 eb3d 4687 ffbc
00000220: 0b33 6f3d e123 0bbd b35c f2ba 8ae0 fbbc
00000230: cb3f 8639 18a9 8cbc fb1a 1abd 2232 b53d
00000240: 693f df3c a4f9 b5bd 9d67 9dbb 4515 0cbb
00000250: ec00 ba3c 18be 0cba 65ae a6bb fc1a 483d
00000260: eb41 aebb c8b5 b0bd a430 923d ade0 8bbd
00000270: e49b a5ba 3eb4 18bd 72dd 9339 89dd 363d
00000280: 6d62 32bd 170c f13d

decoder.6.bias f4 [18]
-0.12776387 -0.7471034 -0.40467593 72.698135 -0.052590024 -0.5923569 -0.3122123 36.22571
-0.08348862 -0.29100814 0.46347693 1.2787975 -0.3480846 -0.07276733 -0.086202316 -0.05853239
-0.13454254 -0.06130214
00000000: 88d4 02be 2b42 3fbf af31 cfbe 7265 9142
00000010: a368 57bd b4a4 17bf 4ada 9fbe 21e7 1042
00000020: 15fc aabd 05ff 94be d94c ed3e a3af a33f
00000030: 2538 b2be 0a07 95bd d78a b0bd a9bf 6fbd
00000040: 85c5 09be f417 7bbd
